model/best_model.pth (torch, 629045 bytes, 21 tensors)

conv_block.0.weight f4 [16, 1, 3, 3]
00000000: e158 51be 8159 303e dc8d 203e 0678 2f3c
00000010: 198b 733d 928b a53e bf96 68be 7f11 1ebd
00000020: 1b53 92be 3b72 e63d 50b4 663e 3008 963e
00000030: 50da 033e 8338 46be c1b9 18be b208 30be
00000040: d428 a1be 1df5 293e 2aa1 12be eb04 eebd
00000050: 380f 943e 9c49 a6be 3b1c dbbd 8853 f6bd
00000060: f580 aabe 9f04 003e 9ecb 9f3e 0429 9c3e
00000070: 6326 a5be b346 873e 5c33 a1be 24df 9a3d
00000080: fac6 893e 3ffb 9abc f7b4 d43d 4258 9ebe
00000090: 2126 a4be 64e9 a43e 6d16 e2bc 55be 0abe
000000a0: d71f 29be 1f43 23be a5e1 e3bc 2f8e 1d3e
000000b0: ad78 41be 04f4 543e 70fc 9cbb 1583 8ebe
000000c0: f013 50be faab 50be 4ce7 823e a5b3 563e
000000d0: bb99 913d 6a66 8dbe 7c18 b0bd 4210 8fbe
000000e0: 014e 823e 0334 6d3e d0d3 9ebe acad 233e
000000f0: f4f9 963e bb0b 7abe 7b83 70be fed9 1d3e
00000100: 5eca 773e e5fc ebbd 4f90 053e 4a57 333b
00000110: 4c31 bd3d e52e 173e 7249 5dbe b891 8c3e
00000120: 778a ff3d f420 23bd 93ca 03bd cd75 afbd
00000130: ffd4 d53d 447e a93c 4584 a03e 5a65 6e3e
00000140: 5e6d 9e3e 6f22 e1bc d1ea 82be d726 a0be
00000150: ce6a 92bd 6ff7 8ebe eeec 0bbe 627b 663e
00000160: 0d96 833e f492 21be 9255 5cbe 2e55 38be
00000170: 1e40 063e 7168 abbe 099a 4a3e d2c2 e7bd
00000180: 7572 a13e f25f f7bc 936c b43d 1994 b8bd
00000190: f716 58be c8d3 f8bd 5f45 1e3e cec6 e5bd
000001a0: 12fe 893e 823d a93c 7b2d 8abd b7b3 733e
000001b0: 32f9 a2be d9dc 903e 11fc 263e 1fe9 8f3d
000001c0: bf65 76be 13e9 84be 7225 8ebe 64db 5fbe
000001d0: b8ec 6f3e ac75 203e b85e 53be 0abe 393d
000001e0: f028 343e 53cf 16be 01f6 1dbe 01bf 9c3e
000001f0: 2017 f4bc 3982 b3bd 6a16 9fbd b504 a83e
00000200: 1625 9c3e 8d51 0a3e 4455 933e 8e8b 153d
00000210: 22bd b23d 7d50 30be 6b18 b4be c0ae 493e
00000220: 5af3 7fbe ca99 8a3e 1c64 f1bd fd2f 9abe
00000230: b02e 84be 975b 21be 9580 83be a35e b4bb
-0.20444061 0.17221643 0.15679115 0.010709768 0.059458826 0.32333046 -0.22713755 -0.038590904
-0.2857903 0.112522565 0.22529721 0.29303122 0.12876248 -0.19357495 -0.1491461 -0.17190817
-0.31476462 0.1659741 -0.14319292 -0.11622032 0.2891786 -0.32478034 -0.10698744 -0.12027651
-0.3330151 0.12501763 0.31210035 0.30500042 -0.3225585 0.26421127 -0.31484497 0.07562092
0.2690962 -0.018918632 0.10386079 -0.3092671 -0.3206034 0.32209313 -0.027598584 -0.13549168
-0.16516052 -0.15943573 -0.027817557 0.1538627 -0.1889369 0.2079621 -0.004790835 -0.27834383
-0.20320106 -0.20378104 0.2556709 0.20966966 0.071094 -0.27617198 -0.0859842 -0.2794209
0.25450137 0.23164372 -0.31020975 0.1598422 0.29487574 -0.24418537 -0.23487656 0.15415189
0.2419829 -0.11522845 0.1304333 0.002736526 0.09237918 0.14763983 -0.21610048 0.27454925
0.12477582 -0.03982635 -0.03217561 -0.085673906 0.104410164 0.020690091 0.31350914 0.2328085
0.30942816 -0.02748224 -0.25569776 -0.31279632 -0.071492776 -0.27923152 -0.136646 0.22508004
0.25700417 -0.15778714 -0.21517017 -0.18001243 0.13110396 -0.3347812 0.19785322 -0.11316456
0.31532636 -0.030197117 0.088097714 -0.090126224 -0.2110251 -0.12149769 0.1545615 -0.112195596
0.26951653 0.020659212 -0.06746956 0.23799025 -0.31830746 0.28293493 0.16307093 0.07026886
-0.2406225 -0.25959072 -0.27762944 -0.21861035 0.23430145 0.15669888 -0.20641601 0.04534725
0.17593741 -0.14727525 -0.15425874 0.30614474 -0.029796183 -0.087650724 -0.07767947 0.3281609
0.30497044 0.13507672 0.2877599 0.036510043 0.087274805 -0.17218204 -0.3517488 0.19695568
-0.24995175 0.27070457 -0.117866725 -0.30114737 -0.2581687 -0.15757595 -0.25684038 -0.0055044456

conv_block.0.bias f4 [16]
00000000: 3128 b23d 67c4 563e 1d0d 203e e5a7 a1bd
00000010: bc49 bb3d 833d 893e f94f f5bd 1336 733e
00000020: a1b6 d93d 5094 06bc 7dd0 3d3e b801 9e3e
00000030: 760f 4c3c 00bc a63e 7879 29be fac2 0b3e
0.08699072 0.20973359 0.15630002 -0.078933515 0.09144923 0.26804742 -0.11978144 0.23751096
0.10630537 -0.008214071 0.18536563 0.30860686 0.012454858 0.32565308 -0.16550243 0.13648596

conv_block.1.weight f4 [16]
00000000: 73ff 783f 7beb 7b3f c844 833f 7c9b 7e3f
00000010: 5c6a 853f d05d 803f b64a 7e3f e4c2 7f3f
00000020: 0100 7d3f fb2c 853f eacb 7c3f e0cf 7b3f
00000030: 3a7d 843f a54f 7f3f 3871 7b3f 5bc9 873f
0.97264785 0.9840619 1.0255365 0.99456 1.0423083 1.0028629 0.9933275 0.99906754
0.9882813 1.0404352 0.9874865 0.9836407 1.0350716 0.997309 0.98219633 1.0608324

conv_block.1.bias f4 [16]
00000000: 14f3 47bc 85e5 323d 224d e7bc a3d7 0c3d
00000010: 0570 d0bb acf8 debb e135 ad3c 3d5d 2dbc
00000020: e0b9 c33c efcf eebc 60c3 e9bc cba2 2d3d
00000030: 0b6f 433a 689f 963d 6586 4ebb 36c0 01bc
-0.01220395 0.043675918 -0.028235022 0.034385335 -0.00636101 -0.0068045463 0.021143856 -0.010581312
0.023892343 -0.029151885 -0.028535545 0.04239158 0.00074552064 0.07354623 -0.003151321 -0.007919362

conv_block.1.running_mean f4 [16]
00000000: cf88 723f c833 6a41 81cc 4fc2 386a 0541
00000010: 2a43 86c2 4edb ddc1 39e7 d0c1 ff7c ad42
00000020: 1502 dd42 eca1 c2c2 66cd a0c1 eeb5 0741
00000030: 9fed 86c2 cbc9 a640 c60f 9742 9189 d3c2
0.94740003 14.637642 -51.94971 8.338432 -67.13118 -27.732082 -26.112902 86.74413
110.50407 -97.31625 -20.100292 8.481916 -67.4641 5.212133 75.53081 -105.768684

conv_block.1.running_var f4 [16]
00000000: 347b 2048 2498 6f48 f7e3 6c48 2482 e147
00000010: 05c1 2048 47c4 8747 570b e447 e28d 3948
00000020: 9893 b748 8b11 d348 f50b 0d48 8a04 0548
00000030: 9a34 6048 bf85 8e47 16bd d348 c9b7 dd48
164332.81 245344.56 242575.86 115460.28 164612.08 69512.555 116758.68 190007.53
375964.75 432268.34 144431.83 136210.16 229586.4 72971.49 433640.7 454078.28

conv_block.4.weight f4 [32, 16, 3, 3]
00000000: 281f dc3c 5175 8abd c538 483d 488a a83d
00000010: 121d 5abd 5e94 9dbd b0c3 323d 6a56 6b3d
00000020: efbf 8c3d 25e3 83bd b673 803d 4823 83bd
00000030: 51f1 13bd d051 16bd a240 503d 21ea 3dbd
00000040: ee00 143d 4e8e 503d 74ba c73d 8239 173d
00000050: 4a43 243c 269b 973a f149 8a3d 3c16 be3c
00000060: b926 6c3b 7752 0a3d eac4 0dbd a3e5 70bd
00000070: f7e5 1fbc 6e60 dfbc 47e2 05bd 3547 20bd
00000080: 5dec 873b 6ce7 b23c b73f bc3c ebf9 c3bc
00000090: 1451 593b 9788 c43c 3b25 243d 5c55 873c
000000a0: 273c a03d f0ea 473d 68bc e03d 2475 b9bb
000000b0: 226c 22bc 6c5e 8e3d 22d3 a5bc 1aac 58bd
000000c0: f935 973d 90e2 7a3c 0271 953d 3f25 b2bb
000000d0: 455c 99bd dfe3 61bd f460 fbbb b37a 273d
000000e0: 8069 8c3d 4b88 813d fc63 30bd ca8f 2dbd
000000f0: 6b51 a8bd 3ec4 85bd 79eb 533d f8a0 45bd
00000100: 2102 84bd 0606 15bd 05a9 843d 1e9c 95bd
00000110: 5c04 503d e2b1 70bc 1a42 343d ebde 1ebd
00000120: 53c5 b63d 2c30 48bd a107 8f3c 0d69 8dbd
00000130: f6eb 993c d348 58bd 0f89 8ebd 14f1 a8bb
00000140: 156b a53c b83f c23c 030d 9d3d 1ab4 533d
00000150: 7696 c93d a98c 19bd ffc6 623c c9c2 973d
00000160: 9e4a 6c3d 4a3a a43d 4778 abbd 7da3 a73d
00000170: 5fa4 00bd f8a9 eebc 7630 61bd cb4d 143d
00000180: 5fac 613d 34b2 b6bd 42c0 86bd 06a9 f9bc
00000190: cc81 0fbd b082 dabc e250 a6bd 9a7e f83c
000001a0: 8649 0b3c 7a46 253d e1d2 1d3d ccc8 46bd
000001b0: f947 8e3d 9c50 bc3d 6f65 333d 1d91 393d
000001c0: ccb1 cd3d d286 723d 0c55 c53c 0f9d b23d
000001d0: 5f14 60bd 2fb7 33bd e51c 42bd 610d 3ebd
000001e0: 6cca febb eb65 8ebd 6cfa 4cbd a742 703d
000001f0: 3c1b 613d 5718 e2bc e5dd 253d 9e35 d63c
00000200: af9d f8bc bcd6 90bd 4264 723c 48f0 5c3d
00000210: 7fe0 90bc cf8b 08bd 8592 9fbd fca6 b13d
00000220: 9355 c73c ea96 863d 5330 223e 75ba b73d
00000230: 923a d53d 3d67 b53d 3492 da3d 65e7 8d3d
00000240: c4e4 6e3d 16f7 813d d44a 27bd 0da1 b0bc
00000250: 62e8 74bd 26d8 1cbd ada3 343d 1d5d c23c
00000260: b0cf 933c 65d7 8cbd 3eba 903d d867 4fbd
00000270: b3b1 8a3d d601 e13c 84c0 01bc 9996 80bd
00000280: b0c0 343d 9261 603d bffc 8dbc 006c a0bd
00000290: 0128 153d f4f6 c5bd 92d2 43bc 0a3b b3bc
000002a0: 868c b6bd abb1 9d3d 7eb2 acbd 6a04 dcbc
000002b0: 9765 5dbc f351 d8bc 8c26 60bd 6add 553d
000002c0: 1e41 53bd 0cf5 82bd dd4f 7d3d acb4 813d
000002d0: 7f9d b2bd 17c6 8a3c a6f3 663c 29c5 b4bd
000002e0: 609f ee3c 0694 17bd 7858 8c39 1dba 2abc
000002f0: 1446 21bd fa10 babc 0a5b acbd 15ff 333b
00000300: 3760 88bd 8367 d53c c979 debc 3250 14bd
00000310: 1711 a63c 214b 143d b35c 8a3d 6f76 3b3d
00000320: 1a7a 8ebd 252d 11bb c670 05bd 2840 8bbd
00000330: 8869 85b9 d87f 1f3d 9e08 8ebd 5048 6b3d
00000340: 3a18 553d 0096 d139 fb3e 83bb dd90 24bc
00000350: 6de3 233d 334e b63c 31e7 29bd a128 02bd
00000360: 2d63 2b3d b470 99bd 46a4 53bd 87f4 0e3d
00000370: d69f 813c 6f7f 1d3d 708d a8bd 2ee9 203c
00000380: f069 1cbc 7f66 203d 4d94 1c3d 52ea b7bd
00000390: 8eef b8bd 472d 9dbd 8620 153d 6b57 13bd
000003a0: a6be 5abb 7c1d e6bd a2d4 8b3c 487e 54bd
000003b0: 5836 7e3d e555 69bd ddd1 52bd ad31 903c
000003c0: 6edc acbd 6d9d 95bd 8707 ac3c 864f 973c
000003d0: 30f9 58bd 12dd 9abd cecf 65bc e617 f7bc
000003e0: 0064 d73c ab98 923d 9756 26bc 5452 4b3c
000003f0: 9b76 ec3a fbab c7bd 927b a3bd dd8f c4bd
0.026870325 -0.067606576 0.048882265 0.082295 -0.05325038 -0.076943144 0.043643653 0.057455458
0.06872546 -0.06439809 0.0627207 -0.06403214 -0.03611881 -0.036699116 0.05084289 -0.04636586
0.0361337 0.050916962 0.0975236 0.036920078 0.010025809 0.0011566624 0.067523845 0.023203962
0.0036033823 0.03377005 -0.03461162 -0.05881275 -0.009759418 -0.027267661 -0.032686498 -0.03913041
0.0041480497 0.021838866 0.0229796 -0.023922881 0.0033159899 0.023990912 0.04007457 0.016520195
0.07823973 0.04880804 0.10973436 -0.005659716 -0.009913476 0.06951603 -0.020242278 -0.052898504
0.07383341 0.015312806 0.07296945 -0.005436569 -0.07488302 -0.055148955 -0.00767147 0.0408885
0.0685606 0.06324824 -0.043064103 -0.042373456 -0.08218654 -0.06531571 0.051738236 -0.048249215
-0.064457186 -0.036382698 0.064775504 -0.073051676 0.050785407 -0.014690848 0.04400835 -0.03878681
0.08924355 -0.048874065 0.017459692 -0.069048025 0.018789273 -0.052803826 -0.069597356 -0.005155692
0.020192662 0.023712024 0.076684974 0.05168543 0.09843151 -0.03748766 0.01384139 0.07410199
0.057688348 0.0801893 -0.083725505 0.0818548 -0.031406756 -0.029133782 -0.054977857 0.036207
0.055096027 -0.08920708 -0.06579639 -0.030476104 -0.035035893 -0.026673645 -0.08120896 0.030333806
0.008501416 0.040350415 0.038531188 -0.04853134 0.069473214 0.091950625 0.043797906 0.045304406
0.10043678 0.059210606 0.024088405 0.08721363 -0.054706927 -0.04387587 -0.047390837 -0.046399478
-0.0077755954 -0.06953033 -0.05004351 0.058657315 0.054957613 -0.027599497 0.04049482 0.026148614
-0.030348627 -0.07072207 0.014794411 0.053940088 -0.017685173 -0.033336457 -0.07791618 0.08674428
0.024332797 0.06571753 0.15838747 0.08971111 0.10411562 0.08857582 0.10672417 0.06928901
0.058323637 0.06345956 -0.040842846 -0.02156117 -0.05979193 -0.038292073 0.044101406 0.02372604
0.018043369 -0.06877021 0.07066773 -0.050636142 0.06772175 0.027466696 -0.007919434 -0.06278724
0.044129074 0.05478055 -0.017332433 -0.07833099 0.036415104 -0.09666243 -0.011952059 -0.021878738
-0.089135215 0.07699903 -0.08432482 -0.026857574 -0.01351299 -0.026406264 -0.05472426 0.05221311
-0.051575772 -0.06394395 0.06184374 0.063332886 -0.08721446 0.01694016 0.014096176 -0.08826668
0.02912873 -0.0370064 0.00026768795 -0.010420349 -0.039373472 -0.022713173 -0.08415802 0.0027465273
-0.066589765 0.026050335 -0.027157681 -0.036209293 0.020271821 0.03620446 0.06755962 0.045767244
-0.06956883 -0.0022152152 -0.032578252 -0.06799346 -0.00025446364 0.03894028 -0.06935237 0.05744201
0.052025057 0.00039975345 -0.0040053106 -0.010044304 0.040011812 0.022254085 -0.041480247 -0.031777028
0.04184263 -0.074921995 -0.051670335 0.03490117 0.015823286 0.03845161 -0.08230102 0.009821219
-0.009546742 0.039160248 0.03822737 -0.0898024 -0.090300664 -0.076746516 0.03640797 -0.03597204
-0.0033377795 -0.112360924 0.017069165 -0.051878244 0.062063545 -0.05696668 -0.051469672 0.017601812
-0.08440481 -0.07305417 0.020999683 0.018470537 -0.05297202 -0.07561697 -0.014026595 -0.030162763
0.0262928 0.07158025 -0.010152481 0.012409765 0.0018040718 -0.097495995 -0.079825535 -0.09597752

conv_block.4.bias f4 [32]
00000000: cc18 7c3d 1f94 d93c c884 9f3d 16f3 8abd
00000010: cbce 3b3c a80b d5bc f503 9e3c ba83 933d
00000020: cdbc a33c 6db7 79bd 58f9 25bd 555c fe3c
00000030: 3312 2abd af4e b9bc ab98 93bc 9063 5aba
00000040: 0034 13bc 82ff 83bd 9f2f 80bd 321c 6f3d
00000050: 4d6a 3c3d e5a6 8bbb 6cd5 fbbc bdf9 ffbc
00000060: c675 3d3a 7a9e 983d 0600 1f3d 5059 6d3d
00000070: 8272 afbc 482a bd3b da96 243c 6d57 debc
0.061547086 0.026559887 0.07788998 -0.06784646 0.0114628775 -0.026006535 0.019288996 0.07202859
0.019987488 -0.060965944 -0.040520996 0.031049887 -0.041521262 -0.022620527 -0.018017134 -0.0008330876
-0.008984566 -0.064452186 -0.06259083 0.0583765 0.045999814 -0.0042618387 -0.030741416 -0.031247014
0.00072273274 0.07452102 0.03881838 0.057946503 -0.021416906 0.0057728626 0.010045731 -0.027141297

conv_block.5.weight f4 [32]
00000000: 955d 843f 1406 823f 8ccf 7f3f 277f 7a3f
00000010: 77d0 7a3f 2552 803f 098d 813f 1bc9 783f
00000020: b3bd 803f 8a73 853f 196f 7c3f 0317 823f
00000030: 0ca2 793f 56c1 803f 984c 823f 9da3 813f
00000040: 5fe6 803f 7393 803f 587b 7f3f 9eb9 803f
00000050: b871 803f 2557 7e3f 38f4 843f d7cf 7f3f
00000060: 3a54 7c3f aa47 823f a6df 7d3f d803 843f
00000070: 3b2c 833f 65f2 803f a37f 7e3f 57d2 813f
1.0341059 1.0158105 0.99926066 0.9785027 0.9797434 1.0025069 1.0121166 0.9718186
1.0057892 1.0425885 0.9860702 1.0163273 0.9751289 1.0059001 1.0179625 1.0128056
1.0070304 1.0044998 0.9979758 1.0056646 1.0034704 0.9935172 1.038703 0.99926513
0.9856602 1.017812 0.99169385 1.0313673 1.0247873 1.0073973 0.9941351 1.0142316

conv_block.5.bias f4 [32]
00000000: c79b 1abc 0a24 67ba 09fc 253c 93b1 6ebb
00000010: 632c 09bc 6918 47bc 0a64 7bbb 8026 c8bc
00000020: 5934 cd3b ef62 d43b 26de f8b9 cf6a aaba
00000030: 758c ecba 8e52 9c3c 304a 50bc 09a4 27bc
00000040: 6680 90bb ff3f e0ba cf2a 0bbd 9dea 863a
00000050: 0309 503c b38e 623b 4b0c c33c fe23 c73a
00000060: 4d57 7ebc e7e1 1e3d 3173 5db9 8ffa 1abc
00000070: 7343 e83c cdae 9ab6 8935 8a3c 7c7b 72bc
-0.009436554 -0.0008817321 0.010130891 -0.003642176 -0.008372399 -0.012151816 -0.0038359188 -0.02443242
0.006262344 0.0064815204 -0.0004746776 -0.0013001802 -0.001804723 0.019082334 -0.012713 -0.01023198
-0.0044098375 -0.0017108916 -0.033976372 0.0010293309 0.012697461 0.0034569919 0.023809573 0.0015193222
-0.015523744 0.038789656 -0.00021119115 -0.009459152 0.028352475 -4.609907e-06 0.01687123 -0.014799949

conv_block.5.running_mean f4 [32]
00000000: 99b1 7f3e fe84 aabe a229 45bd 0a59 d43e
00000010: a509 843e 91e9 a1be e237 a9be c85a 123e
00000020: 1ccf dfbd f109 cbbe 5744 9e3e c1e1 a8be
00000030: 44a8 06be d4e2 b5bd cb39 9cbe c8e8 40bc
00000040: 8435 8cbe 2d39 4abe 5dcd a3be bbaa 91be
00000050: 5f3a 12be 14ff 45be ef09 02be 5ff5 8dbe
00000060: 8899 83be e8d5 5bbe 2049 b0bc 9e9b 03bc
00000070: 8004 5dbe 7d67 80be 76b1 1ebd 3e85 85be
0.24970092 -0.3330459 -0.048135407 0.4147418 0.25788608 -0.3162351 -0.33050448 0.14292443
-0.10928175 -0.39656022 0.30911514 -0.32984737 -0.13150126 -0.08881155 -0.30512843 -0.011774249
-0.2738458 -0.19748373 -0.31992617 -0.2845057 -0.1428008 -0.19335586 -0.12699102 -0.27726266
-0.25703073 -0.21468318 -0.021519244 -0.0080327075 -0.21583748 -0.25078955 -0.03874346 -0.26078218

conv_block.5.running_var f4 [32]
00000000: e2fc 183e c213 c23e bc30 1d3f 4b31 d13f
00000010: 93ec 4b3f e8e5 f53e 8e50 bb3e 7589 113f
00000020: f33c c63e 3ae7 e43e 98b0 363f 0144 363f
00000030: 78de bf3e 79ed 983e 7935 2a3f 11fd dd3e
00000040: 2758 643f 6d8e 893e 2cb9 b33e 38e5 4b3f
00000050: 43a0 923e d9dd fb3e fdc5 a23e a8dc ea3e
00000060: 38ba c73e 8a1b a33e e637 9c3e 038b 7f3e
00000070: 08dd e43e 3905 8b3e 7646 0f3f 5ee4 3c3e
0.14940217 0.379057 0.6140249 1.6343168 0.7965786 0.48026967 0.36584896 0.5685037
0.38718376 0.44707662 0.7136321 0.71197516 0.37474418 0.29868677 0.6648784 0.43357137
0.8919701 0.26866475 0.35102212 0.79646635 0.28637895 0.49192694 0.31791678 0.45871472
0.3900926 0.31856948 0.30511397 0.24955373 0.44699883 0.27152422 0.5596689 0.1844649

conv_block.8.weight f4 [64, 32, 3, 3]
00000000: 6ab2 41bc dcaf 85bb ed4f 663c f27a 583d
00000010: 81f5 f73c 1ece 393a 2f15 e23c b265 f13c
00000020: 6186 02bd bd9b 75bd 94e6 5b3d 46bd 4ebd
00000030: 0d2f 1ebd 9562 15bc 3615 ae3c 12ab 0fbb
00000040: a6fb 76bd 675e c9bb 7a27 3cbc dbe2 86bc
00000050: a32a 5dbc 8a68 98b7 f082 2abd d3ee 19bc
00000060: a5e2 803d a3f8 2cbd dd9b 233d af58 b13c
00000070: 28a2 59bc cc55 03bd b209 f83c 10ab 2cbb
00000080: 2ac6 8cbd ee14 8cbc 0346 6c3b d536 24bd
00000090: 9ccc d0bc a31b 4abd 5cdf 54bd 5a38 5c3b
000000a0: 5965 db3c f43f 84bc 85d5 483d 04a6 a63b
000000b0: 293c 63bd 6982 a13c a962 8dbc 4b50 0ebd
000000c0: 6521 d53c c6e5 92bd 1a9b 6cbd 8730 3e3d
000000d0: a806 28bd 3100 d2bc 342b a13c 70d9 13ba
000000e0: f503 303c c1f8 fa3c f2ef 13bd 4147 b5bc
000000f0: efe6 d3bc a284 54bc 17d7 89bd f166 3e3b
00000100: 4553 41bc a433 d4bc 16ab d03c fbf0 3d3c
00000110: 1ff6 b93b 01ed 693c 7a9e bebc 7f1b bd3c
00000120: 23bc 3c3c f566 e93c 73f4 0cbd 5f67 513d
00000130: d30c 7abd 14c9 0ebd 3b55 113c c3c1 c2bc
00000140: a377 1cbd 0587 91bd be3e 88bd 1ec6 e63c
00000150: 0ba2 6bbd 4ea6 2fbd 931e 43bd d2e5 f2bc
00000160: 51d2 303d 3958 60bd cb37 0a3c 6f2b 52bd
00000170: 800d bcbb 22f8 f73c 08df 2b3d e49f 8fbc
00000180: 9952 2cbd 76fc f5bc f327 413d a05c b53c
00000190: 645c 0abb c745 82bb cd33 7e3c 3a12 963c
000001a0: 41df 50bd 69b8 283c 4e59 06bc 0010 88bd
000001b0: 48f0 22bd ffd3 7cbd cb60 07bd 0010 d2bb
000001c0: 3b2a 103b 9be1 453d 4203 dcbb 70c6 683c
000001d0: fc40 07bd 3c04 933c 88c7 bebc 94d7 d53c
000001e0: c497 083d 143b 373c ef8a 4f3c d946 43bd
000001f0: cadd e83c 4508 863b 8327 b1bc e75b cdbc
00000200: 19ea b1bc 1114 c2bb 036c 4d3d b511 06bd
00000210: a33e 053c 2f37 443d ddb5 a7bc bfa0 b73c
00000220: b719 7fbd 99a3 293d e073 ab3c 5424 f53c
00000230: bd6f 643d 3182 9fbc 0b90 84bd 3ddb 823c
00000240: 3d49 d43c fbaf 353d 906d efbc 3987 833c
00000250: 0b27 723c b2dd 103d dd44 73bd 1289 48bd
00000260: 2014 513b df41 10bd c5bb b6ba 770e 253d
00000270: 11da 313c 955e 233d 461c 273b 44fb 98bc
00000280: a98b d63c b1ce 273d d4f1 1a3d 5ceb 8cbc
00000290: 4c91 1f3d f08f 333d bd30 ad3a 23aa 333d
000002a0: f5ca 1ebd c208 8cbd 059c 35bd b406 86bd
000002b0: 6708 3abd 491b cbbc 6671 80bd e05b bebc
000002c0: 64c5 2bbd be8d 21bd a894 d13c ea7f d3bb
000002d0: bf68 133d fe46 8f3c 14b7 cd3c 5dd7 0fbd
000002e0: f778 62bc 61b8 9c3c f549 b5bb 206c 1a3d
000002f0: 98d9 5b3d 3707 4d3c caa9 bcbb 12ac c4bc
00000300: 23b7 703c 7c2a 403d 178d aa3c cb0b 483d
00000310: 9543 1d3c 90c0 563d 1b59 233d 9d23 693b
00000320: e68c 753d 810e 16bd fe07 f6bc a432 8a3b
00000330: 27d2 753d 394a 283d a796 8bbc a61b 3dbd
00000340: db18 093d 994a 50bc 4fdb ef3c eed6 473d
00000350: 287b 0e3d 7c44 3d3d 3f93 68bd b3b8 0d3d
00000360: 4919 63bd 1484 f8bc 06cd e03c b830 533d
00000370: 7c8a 09bd 3013 afbc 4606 9a3c 4c50 a83c
00000380: 8638 26bd 5e41 30bd 46f9 6dbc f52e 363d
00000390: 594c 1b3d 7221 dbbc 7266 20bd 6289 043d
000003a0: 2a4d b0ba d87f eebc 4039 0a3d a554 183d
000003b0: 2242 24bd 0168 0abc a6c0 35bd e586 f7bc
000003c0: 61bf 243b 83d0 9bbc afd9 87bb 282e 26bd
000003d0: 7db5 ae3c 7213 b7bc 108d 3fbd c3db 0d3d
000003e0: b6e4 393c a25d 433c 8ac3 0f3c e8d5 c03c
000003f0: 70b4 ad3c 776c 243c 3b28 3a3d 66fb 27bc
-0.011822322 -0.004079802 0.014057142 0.052851625 0.030268433 0.0007087904 0.027597992 0.029467437
-0.031866435 -0.059962977 0.053686693 -0.050473474 -0.03861909 -0.009117742 0.021250349 -0.0021922034
-0.060298584 -0.006145287 -0.011484021 -0.016465595 -0.013498935 -1.8168492e-05 -0.041628778 -0.009395319
0.06293229 -0.042229306 0.039943565 0.021648733 -0.01328329 -0.032064244 0.03027806 -0.0026347078
-0.06873734 -0.017099824 0.0036052472 -0.040091354 -0.02548819 -0.049342763 -0.051970825 0.0033602924
0.026781725 -0.016143776 0.049031753 0.0050857086 -0.055477295 0.019715505 -0.017258959 -0.034744542
0.0260169 -0.07172732 -0.057765104 0.046432998 -0.041021973 -0.025634857 0.019673921 -0.00056400057
0.010743131 0.030636193 -0.0361175 -0.022128703 -0.025866954 -0.012971075 -0.06730478 0.0029053057
-0.011799638 -0.02590353 0.025472205 0.011593099 0.005675092 0.014277698 -0.023268927 0.0230844
0.011519465 0.028491477 -0.034412812 0.051123973 -0.061047386 -0.03485973 0.008870418 -0.023774033
-0.038200032 -0.07105831 -0.06652592 0.028170642 -0.057527583 -0.04288321 -0.04763658 -0.029650602
0.043169323 -0.054771636 0.008436154 -0.051310953 -0.005738914 0.030269686 0.041960746 -0.017532296
-0.04207096 -0.03002761 0.04715724 0.022138894 -0.0021112198 -0.0039756033 0.01551528 0.018319238
-0.05099416 0.010297873 -0.008200003 -0.06643677 -0.03977993 -0.061725613 -0.033051293 -0.0064105988
0.0021997828 0.048310857 -0.0067142555 0.014207467 -0.03302096 0.017946355 -0.023288503 0.026103772
0.03334786 0.011183519 0.012667402 -0.047674987 0.02842607 0.0040903413 -0.021625286 -0.025068237
-0.021718072 -0.0059228023 0.050151836 -0.03273173 0.00813261 0.04790419 -0.020472461 0.022415517
-0.062280383 0.041415785 0.020929277 0.02992455 0.055770624 -0.01947126 -0.064727865 0.015973682
0.025913829 0.04435728 -0.029227048 0.01605569 0.014779816 0.035367675 -0.059391845 -0.048958845
0.0031902865 -0.03521907 -0.0013941458 0.040296998 0.010855214 0.039885122 0.002549903 -0.0186745
0.026189642 0.0409686 0.03782828 -0.017202072 0.038956925 0.04383844 0.0013213378 0.043863427
-0.038767774 -0.06837608 -0.044338245 -0.06544247 -0.04541817 -0.024793284 -0.06271629 -0.023237169
-0.041936293 -0.039441817 0.02558358 -0.0064544575 0.035988566 0.017489906 0.025111713 -0.035117496
-0.013822786 0.019130887 -0.005532498 0.037700772 0.05367431 0.012513927 -0.005757545 -0.02400783
0.014692101 0.046915516 0.02081923 0.04883937 0.009598632 0.052429736 0.0398799 0.0035574206
0.059948824 -0.036634926 -0.030033108 0.0042174626 0.06001487 0.04108641 -0.01703961 -0.046168946
0.03347097 -0.012713098 0.02927938 0.048788957 0.03478542 0.04620789 -0.05678105 0.03459997
-0.055444036 -0.030336417 0.027441513 0.051560134 -0.033579335 -0.021371454 0.01880182 0.020546101
-0.04058125 -0.04303109 -0.014524763 0.044478375 0.037914608 -0.026749346 -0.0391602 0.03235758
-0.0013450731 -0.029113695 0.033746004 0.0371901 -0.04010213 -0.008447648 -0.044373177 -0.03021569
0.0025138485 -0.019020325 -0.004145823 -0.04057136 0.021326775 -0.02234814 -0.046765387 0.03463341
0.011346033 0.011924179 0.0087746475 0.023539498 0.021204203 0.010035626 0.045448523 -0.010252809

conv_block.8.bias f4 [64]
00000000: d0f6 ef3c a6f4 23bc 8594 993c 1498 f3ba
00000010: 60ed 7abd 6001 583c 5294 d03c a0d1 d83c
00000020: 373e 06bd 2f38 823c cda5 4c3d b922 793c
00000030: 0918 583d 3b01 0d3d 0939 3abc 6506 9c3c
00000040: 0a96 763d 3418 5ebd c8cb fe3b 51a1 5f3d
00000050: 2a9f a53c def1 adbb 559a 24bd d1dc 223d
00000060: be9c 5cbd e764 07bb 6a0c 103d cd8c 12bc
00000070: bcca 4a3d d0cb 53bd 5286 b93c c0d4 51bc
00000080: 5ec0 1f3b c293 e93b 7a8c 513c 1186 54bd
00000090: 6ec8 803c dde2 7b3c 35ba 5c3d c587 9ebc
000000a0: 26c2 82bc 0604 06bd 9f04 1c3d ae3a 373d
000000b0: 35a0 9d3c 5edd f3bc 7b4f afbb 48fd 3b3d
000000c0: 4590 1b39 8bc7 8c3c 7d65 1c3b 414f 34bd
000000d0: f9d9 0bbd 58e5 f8bc cff1 5e3d ecd4 54bd
000000e0: ab23 733d 4053 e0bc 69e1 053d cd5f 62bd
000000f0: e0c8 1cbd 8a99 5f3d 8aa5 42bd e326 2bbd
0.029292494 -0.010007059 0.018747577 -0.0018584752 -0.061261535 0.013183922 0.02546135 0.026467144
-0.032774176 0.015895931 0.049962807 0.015206032 0.052757297 0.034425 -0.011366137 0.019046018
0.060201682 -0.0542223 0.0077757575 0.054597203 0.020217497 -0.005308374 -0.040186245 0.03976137
-0.05386042 -0.0020659508 0.03516809 -0.008944702 0.04950975 -0.051708043 0.022647057 -0.012807071
0.0024376134 0.00712821 0.01278984 -0.05188567 0.015720572 0.015373913 0.05388852 -0.01935185
-0.015961718 -0.03271868 0.038090345 0.044733696 0.019241432 -0.029768642 -0.005350051 0.045895845
0.00014835696 0.017184993 0.0023864203 -0.044020895 -0.03414342 -0.030382797 0.054429825 -0.05196087
0.059360188 -0.027383447 0.03268567 -0.055267144 -0.038277507 0.054589786 -0.04752115 -0.041785132

conv_block.9.weight f4 [64]
00000000: 8e96 7c3f cc61 7f3f 3d83 813f 5421 7d3f
00000010: 7b16 7f3f e87f 803f 9120 813f 33f9 7d3f
00000020: d355 803f bc00 813f 0ebf 803f 0f82 803f
00000030: 2cca 7d3f 4366 803f faac 813f c359 7e3f
00000040: 0383 813f 6109 823f 53b4 7f3f 82a7 7e3f
00000050: 38b2 803f 7ad0 803f 1cf8 803f 2774 7f3f
00000060: 3fb1 7d3f a70c 7b3f b9ee 803f b95f 7f3f
00000070: d865 803f 69d8 7d3f eb3e 7f3f 1fd7 803f
00000080: 07c5 813f 50f5 803f 39bb 7c3f 7cf4 803f
00000090: 4a93 7d3f e5db 803f 4818 803f 7a6a 813f
000000a0: 44e3 803f f8cb 7f3f 2c15 823f 8c3d 803f
000000b0: a5dd 803f 0e0d 7f3f 1df7 803f bc33 803f
000000c0: 41a9 803f 84ce 833f 3b41 813f 4ccf 803f
000000d0: 2020 7f3f 0b24 813f 84a6 7e3f fa53 803f
000000e0: 0ab0 803f 9303 7e3f c747 803f cacf 7c3f
000000f0: cc6d 813f 0135 7f3f 728e 803f 7a60 813f
0.9866723 0.997586 1.0118176 0.9887898 0.9964368 1.0039034 1.0088063 0.9920837
1.0026191 1.0078349 1.0058305 1.0039691 0.99136615 1.0031208 1.0130913 0.99355716
1.0118107 1.0159112 0.9988453 0.99474347 1.0054388 1.0063622 1.0075717 0.9978661
0.9909858 0.9806618 1.0072852 0.99755436 1.003108 0.9915834 0.9970538 1.006565
1.0138253 1.0074863 0.9872318 1.0074611 0.9905287 1.0067106 1.000741 1.0110619
1.0069356 0.99920607 1.0162711 1.0018783 1.006764 0.99629295 1.0075413 1.0015788
1.0051652 1.0297399 1.0098032 1.0063262 0.99658394 1.0089124 0.9947283 1.0025628
1.0053723 0.99224204 1.0021905 0.9875456 1.0111632 0.9969025 1.0043471 1.0107567

conv_block.9.bias f4 [64]
00000000: 9633 56bc 98a3 42bc c460 643b 1183 01bc
00000010: b078 1cba 9f11 1c3c 28d7 273c 5090 203b
00000020: 2088 c039 b520 2abc f42b 503c d15b ca3b
00000030: 332e 2abc 8ffc 2c3b 6789 1c3b 9995 95ba
00000040: c510 d0bb 1814 ceb9 e1d9 bf3b 2f78 0abc
00000050: 9bdd 4c3c 80bc 053c f42f b53b e80e 9a3b
00000060: a6e9 63bb 4dd0 26bc 70f8 433c f475 59bc
00000070: 1dee 5fba e26a d538 623f a93a 405b 513c
00000080: f2c2 943b 6297 a43b c4bc 2dbc 49aa 82ba
00000090: b097 43ba ac84 7fbb 44f1 3f3a ad45 ad3b
000000a0: 0f0d 73bc 0cb5 70bc 9c29 a33b a3e8 5f3a
000000b0: 3c53 123c 1241 023b e14a 323c 1273 2e3b
000000c0: 55b9 243b d39e 903b e64e 853b 21ac a0bb
000000d0: 20b1 29bc 179f 093c c1bc 963b b922 743c
000000e0: fd4c b03c d769 61bc 3204 c739 3b87 69bc
000000f0: 8420 953b 92ff 53bb 84ad 4b3b 014f 413c
-0.0130738225 -0.011879824 0.0034847716 -0.007904784 -0.00059689116 0.009525686 0.010244168 0.002450008
0.00036722515 -0.0103837745 0.012705792 0.006175496 -0.010386991 0.0026395654 0.002388561 -0.0011412381
-0.0063496553 -0.00039306353 0.0058548306 -0.008451506 0.012504007 0.008162618 0.005529398 0.004701484
-0.0034776716 -0.010181499 0.011961088 -0.013272751 -0.00085422565 0.0001017654 0.0012912566 0.012778103
0.004539841 0.005022929 -0.010604087 -0.0009968962 -0.0007461263 -0.003898899 0.0007322023 0.005287847
-0.014834656 -0.014691602 0.0049793255 0.00085414405 0.008930977 0.001987521 0.01088211 0.002661888
0.002513488 0.0044134646 0.0040682433 -0.004903332 -0.010357171 0.008399746 0.004600138 0.014900857
0.021521086 -0.013758144 0.00037959364 -0.014253433 0.0045509953 -0.0032348377 0.0031078765 0.011798621

conv_block.9.running_mean f4 [64]
00000000: f47f 2fbe c03e 38be 5159 e13d 176e c5bc
00000010: b0b0 28bd 1902 70bd 01cb e8bb 2e51 873b
00000020: 0b70 b5be 1c7c 38be 295a 4e3e d227 71be
00000030: 1d7e b23e 87d8 8fbe fc31 9dbe be4e b6bd
00000040: 760e e2bc 8c09 2ebc 3e5b 46bd 5ef3 b7bd
00000050: 4f08 a8bb 2bb6 3e3e c05c 42bd f72a 15be
00000060: f6cb b53d 6947 bbbd 20d1 593d 96c4 69bd
00000070: 9ab6 8e3d 2c98 ae3c 7e67 8b3d 53bc e53b
00000080: 326d c5be 0722 85be 4441 ee3d 902d 8dbd
00000090: d85b 50bd ea66 27bf 5ba8 8abe ce50 9fbd
000000a0: 972d 6f3e 7ac2 c2be 50ec 75be af55 c83d
000000b0: b64d c63d d6a3 05be a6d8 83be b348 75bd
000000c0: d78c fbbd 3d35 003e 43a0 b3be 1ba8 a9be
000000d0: edd9 47bd 127a cdbd 6f11 14be 83ae 41be
000000e0: aa17 4bbd 28c8 d9bd 67c2 f03d e837 b4bc
000000f0: 981c e6be 82fc 49bc 3ecc ddbe 0781 6e3d
-0.17138654 -0.17992687 0.11003364 -0.024100346 -0.041184127 -0.05859575 -0.007104278 0.0041295504
-0.35437045 -0.18016094 0.20151581 -0.23550346 0.34861842 -0.28094885 -0.30702198 -0.08901738
-0.027594786 -0.010622393 -0.04842686 -0.089819655 -0.0051279436 0.18624179 -0.047451735 -0.14567171
0.08876793 -0.0914448 0.053177953 -0.057072245 0.06968422 0.021312796 0.06806849 0.0070109754
-0.38559872 -0.26002523 0.11633542 -0.06893456 -0.05086884 -0.6539141 -0.2708157 -0.07779084
0.23357235 -0.38039 -0.24015927 0.09781968 0.09682791 -0.1305078 -0.25751227 -0.059883785
-0.122827224 0.12520309 -0.35083207 -0.33136067 -0.048791815 -0.10033049 -0.14459775 -0.18914227
-0.049583115 -0.1063388 0.11755829 -0.021999314 -0.4494369 -0.012328269 -0.43319887 0.05822852

conv_block.9.running_var f4 [64]
00000000: fd20 153e 3a10 923d 99f3 3b3d 39df 5e3d
00000010: 2ea3 633d c0a0 463d ee4b 413d 3421 213d
00000020: 6ae6 b03d 6bc2 a23d dbac 423d a9fb 703d
00000030: f80c 293e 3bb6 8e3d 5519 e73d 7e0f b33d
00000040: 6a76 293d 2c45 273d 661c 4a3d 71bf 943d
00000050: b4c9 bd3d a965 333d 4aae 043d 9e74 583d
00000060: 121b 8e3d a493 3e3e 4826 3f3d d48a d63d
00000070: f926 483d 8a86 2b3d 2387 7a3d fe29 713d
00000080: c01c cd3d a7cc d73d ccd4 2b3d 73fe 263d
00000090: 8525 7f3d a421 0d3e 0dce b43d 77f2 373d
000000a0: 9775 8a3d 25b4 e13d 91ec df3d 772b 133e
000000b0: 041d 1d3d c56e 9b3d 468d 4f3d dd48 9b3d
000000c0: e90a b03d 4fc7 053d b3d8 083e a3ab 513d
000000d0: bfab 8b3d 00d7 8c3d e195 5b3d f941 993d
000000e0: 289f 343d c4bf 533d 94ab 213d 4776 9d3d
000000f0: 6f68 913d 2a2f 133d 56bf d03d 3aeb 213d
0.14563365 0.07132001 0.04588661 0.0544121 0.055575542 0.048493147 0.047191553 0.039338306
0.08637698 0.079472385 0.04752813 0.05883375 0.16508853 0.069683515 0.112841286 0.08743189
0.041372694 0.04083745 0.04934349 0.07263077 0.092669874 0.043798123 0.032392778 0.05284559
0.06938757 0.18611008 0.046667367 0.10475698 0.048865292 0.041876353 0.061164033 0.058877937
0.10015249 0.10537081 0.041950986 0.040770005 0.06229164 0.13782364 0.088283636 0.044908967
0.0676071 0.11020688 0.10933793 0.1437205 0.03835775 0.07589487 0.05067184 0.07582257
0.08595831 0.03266078 0.13363914 0.051189076 0.06819867 0.068769455 0.053609733 0.074832864
0.044097096 0.051696554 0.03947027 0.07688575 0.07099997 0.03593365 0.101927444 0.03953097

regressor.1.weight f4 [128, 1024]
00000000: 41e7 32bc 14f3 febc 440d f8bc a7d2 193b
00000010: b073 6a3c 3308 9a3b 23c2 a3bc f626 27bb
00000020: d746 c13c 4058 a1bc 8bd2 ebbb be5e 193b
00000030: b1ba 9d3c 4add 8b3c 0434 da3c 551d c6bc
00000040: 9d28 95bc 5565 d2bc a4c5 2ebc 41d7 b53c
00000050: 9a1e a83c 9b4c 25bc 7cc7 e1bc 539d 0b3c
00000060: 92d1 00bd 0f20 c8bc 2504 c23c 7cd6 f63c
00000070: d1f9 973c be78 c93b c3de a73c e52b e03c
00000080: a92b 103c de5a f23b c103 74bc 1520 ba3b
00000090: f181 a43b 2286 b83b 5ff0 e13c afa4 443c
000000a0: af15 173d a5c1 083d d691 86bb b03a 0fbb
000000b0: a94b 3a3d 5b94 053a 7069 0f3d d9e3 333d
000000c0: 967b a1bc 7c02 a23a 50f8 d43c 9cf3 503c
000000d0: 4f11 9b3c 087c c33c 155c 5ebb c32b 22bc
000000e0: 3798 4cbc a956 c9bc 557b aa3c 5036 b1bc
000000f0: 14b1 92bc 6ca7 cd3b d5eb 8abc 7407 e2bc
00000100: 71ff 193c 3607 a4bc 4c8b 4a3c cca8 83bb
00000110: ed96 5b3c 57b0 91bc 00f0 21bb e4db 043d
00000120: dd84 083d 38b2 773c e351 203d 34fe 9bbc
00000130: 6c82 babb 95ab f3bc 8f15 05bb a216 e23b
00000140: 843a b43c f3ea 073d d875 543c e34b 7f3b
00000150: 776a 0c3c 0c37 8e3b 4c7c e53c 059d b9bb
00000160: 2cd5 3a3b 5b2e 603b 609a 033d 345d 0d3c
00000170: 55e7 98bc 4893 20bb 0a62 b93c 80c9 66bc
00000180: 66cb 0c3d 20f8 fbbc a6e6 3abc aca5 4f3c
00000190: b1b0 babc 71a8 d8bb 868a d8bc 74ae bbbc
000001a0: b79a eb3c d676 f0bc 34f1 83b8 d7c0 79bc
000001b0: 631b 1e3d 8d4d 183d 4f0d 403d daef 283d
000001c0: 3ec7 8a3b 2b07 8cbc 5285 44bc 785f 94bb
000001d0: 9b20 cfbc b1f5 e53b 7ee8 0cbc 4ba7 4abc
000001e0: 6d42 d13c 8ac1 8ebc c60a bd3b 29cc 023c
000001f0: b1fe 24bc 66d2 033b 8ac3 63bb 431d 0f3d
00000200: 9245 2ebc cbae c1bc 5954 d0bc 8e54 20bd
00000210: a428 a9bc 287e b9bc e6cb 2e3c 2337 a03c
00000220: db99 ae3c 2220 c0bc 9e04 fc3c 0d1c bbbc
00000230: 6df9 d93b 5282 093c af2b 043d 4063 48bc
00000240: d130 9fbc 4932 15bd 23a0 e53b 16c5 973c
00000250: 8e3b 413c f36d 33bc d5b5 b33c b1ae aa3b
00000260: ad6e dcbb 8622 e03c c9f8 bf3b 8f5e 97bc
00000270: fe63 d439 0f8e 6bbb 8d0d 94bc 704b 4e3b
00000280: baff a63b 4cca 813c 7c1c b43c ce80 813c
00000290: 7989 a33c c87b 91ba 15ba cc3c 81d6 9e3c
000002a0: 299b 27bc e8ee 0e3d 4306 12bc d923 74bb
000002b0: 404b 9f3c 2c0f 823b d4bc feba 3476 0d3c
000002c0: 5be5 c8bc fffa e53c a802 e33c 8194 b2bc
000002d0: ad39 e1bc 9e45 9cbc f342 84bc 4966 50bc
000002e0: cb8d de3a 4e64 8f3c fcf2 353c d598 ea3b
000002f0: 94d8 7b3c 0543 f03b ce2b d93c 24fd 163d
00000300: a832 2ebc fa9f 89b9 65cb ceb9 9c1e bbbb
00000310: f8fc 09bd 70eb e5bc 01c2 873c cd98 5abc
00000320: 7c83 603c 2fac 11bd 1c4b c4bc 9e0e 3d3b
00000330: 1e97 68bc a9af f03b 79a8 a73c e8fa af3b
00000340: 672e b3b9 4cfb 223c 2f0e b6bc 4ef2 64bb
00000350: 2f59 c63c f19b 313c 337f 1dbb 6891 363c
00000360: 2fd6 c3bc d9f6 083d d019 783c 4737 053d
00000370: 3f98 99bc 8e52 ee3c fabe 8abb 8077 55b8
00000380: f8ef 53bc 1a89 0dbd 6e9e 24bd 094b 0fbd
00000390: 645c 653b 05bb ed3c 4ccc 3fba f2d8 9fbb
000003a0: 9756 c3bc 6ef3 d03c 0dea 84bc ba39 a9bb
000003b0: 1868 21bc 0a27 0c3d 4974 843c 6922 c33c
000003c0: 1abe c5bb a9b4 7dbc c45b 663c 4419 12bc
000003d0: 08eb 8d3b 6d2a 973c 2e59 f43a de17 b2bb
000003e0: 62e6 8e3c 5e92 d73b 3670 9a3c afdf f73b
000003f0: f28a c0bc 3545 a93b 7a50 183d 3b0b ae3c
-0.010919393 -0.031121768 -0.030279763 0.0023471506 0.014309809 0.0047006845 -0.019990033 -0.00255054
0.02359335 -0.019695401 -0.0071967295 0.0023402418 0.01925406 0.017073292 0.026636131 -0.024183908
-0.018207842 -0.025683085 -0.010667238 0.022197368 0.020522404 -0.010089065 -0.027560942 0.008521396
-0.03144986 -0.02442935 0.023683617 0.030131571 0.018551739 0.006148427 0.020491963 0.02736468
0.008799472 0.007396086 -0.014893473 0.005680094 0.005020373 0.0056312243 0.027580438 0.012002154
0.036885913 0.0333878 -0.0041067405 -0.0021855049 0.04548231 0.0005095654 0.035012662 0.043918464
-0.01971225 0.001236036 0.02599731 0.0127533935 0.018929152 0.023862854 -0.0033929397 -0.009898129
-0.012487463 -0.024577456 0.020810762 -0.021632344 -0.017906703 0.0062760618 -0.016958157 -0.027591445
0.009399281 -0.02002297 0.0123623125 -0.004017925 0.013402683 -0.01778428 -0.0024709702 0.032436267
0.033329833 0.015118174 0.039140593 -0.019042112 -0.005691817 -0.029744903 -0.002030704 0.0068996707
0.022000559 0.03318305 0.012967549 0.0038955144 0.008570305 0.004340058 0.02801337 -0.00566447
0.0028508408 0.0034207318 0.032129645 0.008628178 -0.018664995 -0.002450185 0.022629756 -0.014086127
0.034373663 -0.030757964 -0.01140753 0.012673777 -0.022789331 -0.0066118767 -0.02643324 -0.022910334
0.028760297 -0.02935354 -6.291494e-05 -0.0152437305 0.038600337 0.037183333 0.046887692 0.041244365
0.0042351773 -0.017093262 -0.011994677 -0.0045279823 -0.025284102 0.007017814 -0.008600352 -0.012368987
0.02554437 -0.017426271 0.0057691066 0.007983246 -0.010070489 0.002011442 -0.0034754002 0.034940016
-0.010636704 -0.023642918 -0.025430845 -0.039143138 -0.020649262 -0.022643164 0.01066873 0.019557541
0.021313598 -0.023452822 0.03076392 -0.022840524 0.0066520483 0.008392887 0.032268222 -0.012230694
-0.019432457 -0.03642491 0.007007615 0.018526595 0.011793984 -0.010951507 0.02193729 0.005208813
-0.006727061 0.027360212 0.005858515 -0.018477706 0.0004051029 -0.0035942828 -0.018072868 0.003147807
0.005096403 0.015843533 0.021986239 0.01580849 0.019963013 -0.0011099512 0.024991075 0.019389393
-0.010229864 0.034895808 -0.008912626 -0.0037252812 0.019445062 0.003969094 -0.0019434937 0.008634139
-0.024523428 0.028073786 0.027711228 -0.021799328 -0.027493322 -0.019076165 -0.016145205 -0.012719699
0.0016979513 0.017503884 0.011105295 0.0071593323 0.0153714605 0.007332208 0.026510146 0.036862507
-0.010632195 -0.00026249868 -0.00039442923 -0.005710436 -0.033688515 -0.028066367 0.016572 -0.013342095
0.013703223 -0.035564598 -0.023961596 0.0028847824 -0.014196185 0.007345159 0.020466076 0.0053704865
-0.00034176113 0.009947609 -0.02222356 -0.0034934464 0.024212448 0.010840402 -0.0024032115 0.011143066
-0.023905842 0.033438537 0.015142873 0.03252342 -0.018749354 0.0290921 -0.004234192 -5.089445e-05
-0.012935631 -0.03455458 -0.040190153 -0.03498367 0.0034997696 0.029019842 -0.00073165144 -0.004878157
-0.023845 0.025506701 -0.016224885 -0.0051643522 -0.009851478 0.034216918 0.01616873 0.023820119
-0.0060346248 -0.015484967 0.014059965 -0.008917157 0.0043309964 0.018452847 0.00186423 -0.005434974
0.01744384 0.0065787276 0.018852334 0.007564507 -0.023503754 0.005165721 0.037186123 0.02124559

regressor.1.bias f4 [128]
00000000: e367 c63c 3b07 383c d1f9 76bc 9e0b 86bb
00000010: 7a7c 86bc a9e5 a03c efd3 f0bc 8320 13bc
00000020: 78ee 2d3d 7197 d83b 7eab ea3b 8342 1fbc
00000030: 5c4c a0bc 952f 9b3c 976c 97bc 5de1 243d
00000040: 90bd 983c 896b 5a3b ef38 c0bb ea6b 63bc
00000050: 6003 863c 358b 993c 930c 62ba 71e8 a7bc
00000060: 06f9 093d cf1b 6a3c 67d2 2d3c 2f0c 213c
00000070: d32d ff3a e92f c63c ddff 10bc 0c26 1dbc
00000080: 2064 ea3c 422d 78bc aac1 ca3b 9122 d63b
00000090: ad05 acbb 1e0d c13c bc96 01bb c58c 8dbc
000000a0: ba95 2e3c 3d71 09bc fbc4 a23b afd7 483b
000000b0: a3f7 89bc 185a 7abb 59f6 983c 0809 86bc
000000c0: 51f0 a4bb 3b0d 193c ccda 893c 9551 113d
000000d0: 0c53 573c e249 d3bc 9d20 c6ba b22e 763b
000000e0: 8215 b03c 792f 993c 3e3a 3139 17e0 c0bb
000000f0: 5d56 353c 5754 02bd 3c40 cf3b 7d7d ac3c
00000100: a8ed 463c f1ba 13bc 0831 103b 4c8d e33c
00000110: 21b2 803c b118 253d 2ca1 113d 8d3f babc
00000120: 1194 9cbc 28b8 b33c ca99 323b d68d c13c
00000130: 7df7 893c bcb4 2fba 92d7 99bb fced 03bc
00000140: 8011 6abc 915e 153c 07d6 a6bb d4b4 1ebc
00000150: 9946 94bc 4dd4 93ba 805f 93bc 99b4 76bc
00000160: 41d0 143d 14ef e93c bffd a23c 0b91 e0bc
00000170: 4900 4a3c 4aaf c1bc 94a9 0e3d 507e 9c3c
00000180: 183b e73c c44a d7bc 36a9 24bc b05e c03a
00000190: c5e6 4f3c e320 f73b 95ae fb3b 5cee 073c
000001a0: c2e7 beba 9224 fe3a b56f 06b9 e9af b23c
000001b0: 232f d13c 3142 46bc 5952 bb3c 6d40 00bc
000001c0: 3617 123d 970b af3c 5c79 bbbc 229f aa3c
000001d0: 3dc3 023d f021 df3c dec8 bb39 7fa2 293d
000001e0: 81ed ffbc 7ee9 8a3c 5721 e33c a7a2 17bd
000001f0: 911a 893c ff72 863a a1f0 e4bc 85dd 72bc
0.024219459 0.011232193 -0.015074209 -0.0040907403 -0.016416777 0.01964076 -0.029397933 -0.008979919
0.04246375 0.00660985 0.0071615567 -0.0097204475 -0.019567661 0.018943587 -0.018484397 0.040253986
0.018645078 0.0033328256 -0.005866162 -0.013880709 0.016359031 0.018743137 -0.00086230895 -0.020496579
0.033684753 0.014288857 0.010609246 0.009829565 0.0019468613 0.024192767 -0.008850065 -0.009591591
0.028612196 -0.015147509 0.0061876373 0.0065348824 -0.0052497 0.023565825 -0.0019773683 -0.017279038
0.010655815 -0.0083888145 0.0049673296 0.0030646136 -0.016841715 -0.0038200673 0.018672155 -0.016361728
-0.0050335308 0.009341533 0.016827963 0.035478193 0.0131423585 -0.025792066 -0.0015115921 0.0037564454
0.02149463 0.018699395 0.00016901732 -0.0058860886 0.011067954 -0.031818714 0.006324796 0.021055931
0.012141623 -0.009016738 0.002200188 0.027777337 0.015709938 0.04030675 0.035554096 -0.022735381
-0.019113572 0.021938398 0.002725231 0.023627203 0.016841644 -0.0006702652 -0.0046948874 -0.008052345
-0.014286399 0.009116785 -0.005091432 -0.0096866675 -0.01810007 -0.001127848 -0.017989874 -0.015057706
0.03633142 0.028556384 0.019896386 -0.027412912 0.01232917 -0.023643155 0.03482969 0.0191032
0.02822642 -0.026280768 -0.010050109 0.0014676657 0.012689297 0.007541762 0.007680724 0.008296575
-0.0014564919 0.0019389561 -0.0001282085 0.021812396 0.025535172 -0.012100742 0.022866415 -0.00782786
0.035666667 0.021367831 -0.022885017 0.020827834 0.031924475 0.027237862 0.00035817077 0.041414734
-0.03124118 0.01695704 0.027725859 -0.03702035 0.0167363 0.001025766 -0.027946772 -0.014823322

regressor.4.weight f4 [1, 128]
00000000: a23e 9a3d 3e2b 48bd a30d b63d 51cd 2dbc
00000010: 9765 073c 3251 b13c 0f44 20bd 60c0 163d
00000020: b022 813d 8e43 64bd bf24 ab3d e51d 9f3d
00000030: 214a fc3c e354 c13d eba3 3d3d bd0c 903c
00000040: 642b 36bd 535c 89bd 500e 0ebd db86 b63d
00000050: 60d6 b0bd 0e30 ffbc 0072 673d 6510 873d
00000060: 0fcc 173d 09a7 7ebd 9739 79bd 800f a5bb
00000070: 5b75 1dbd bb34 aabd 492c 8abd dfdf 893d
00000080: e91a abbd 1e94 4e3d 5ab3 88bd 5988 62bd
00000090: 8755 533c 681b b0bd ccd3 e3bb 56bf 29bd
000000a0: b453 523d 7610 7b3c 33b8 69bd 9853 9dbd
000000b0: 0ad7 553d 4a41 1abd 15cd 5e3d 43c9 6dbd
000000c0: 5df8 5dbd 0152 b13d eaa8 b7bd e2f0 803d
000000d0: 0d71 4fbd 30a9 d2bc 70e7 113d 06a4 a2bd
000000e0: 4e20 2ebd 98c4 b0bc d0e0 99bd 3ce8 8f3d
000000f0: d24c bc3d 645a 9fbd 06b4 49bd 25a8 d23c
00000100: 00b7 933c 09a4 bcbc 1506 ffbc 366c 5b3d
00000110: a5b3 913d 4060 713d 4b7a bd3d 8168 3abd
00000120: 35f7 9c3d a1b0 693d 1825 2e3d 744c ccbb
00000130: ae40 92bd 887d 503d 3b84 213d 1db9 1cbd
00000140: b299 65bd d15f 353d f704 9d3d 304d 6fbd
00000150: 258e 163d 9772 5b3d 8bd7 ec3b 0fd5 59bd
00000160: d3e7 c93d a9ba 223d e31b 8f3d a913 333a
00000170: 11d4 0c3d 0a1b 85bc f9c9 4f3d 1443 983d
00000180: a980 bf3d 1106 c0bd f039 833d 938f 9cbd
00000190: b288 30bd d717 913d dcc9 e0bc df5b 9d3d
000001a0: 3ffd a63d 951a 583c f052 a4b9 f857 cd3c
000001b0: cf18 1bbd fd40 98bd 0f23 a1bc 2fd8 0f3d
000001c0: 0fe3 3b3c dfb6 2ebd e161 e63c 4c96 8b3d
000001d0: 064f 8abd 58c0 e8bc 53ce 02bd cc4d 223d
000001e0: 4b01 aebc ac08 77bd 5e8b 8bbd e085 40bd
000001f0: 2b26 17bc 30bc d53c 534f 88bd 4479 f43c
0.075314775 -0.048869364 0.0888932 -0.010608033 0.008263967 0.021645162 -0.039127406 0.036804557
0.06305444 -0.055728488 0.08356618 0.07769374 0.030797066 0.09440019 0.046298902 0.0175842
-0.044474974 -0.067070626 -0.03468162 0.089124404 -0.08634639 -0.031150844 0.056505203 0.06594924
0.03705984 -0.062171016 -0.060845938 -0.005037248 -0.038441997 -0.08310839 -0.06746728 0.06732153
-0.08354742 0.050434224 -0.066748336 -0.055305813 0.012898809 -0.08598977 -0.0069527384 -0.041442238
0.051349357 0.015323749 -0.05706043 -0.0768196 0.05220703 -0.03765992 0.0543948 -0.058053266
-0.054191936 0.08658219 -0.08967765 0.06295945 -0.050644923 -0.02571544 0.035621107 -0.07941441
-0.042511277 -0.021578118 -0.07513583 0.07026717 0.0919434 -0.077809125 -0.04924395 0.025714943
0.018031597 -0.023027437 -0.03113083 0.053569995 0.071143426 0.05892968 0.09251841 -0.04550982
0.076643385 0.057053212 0.042515844 -0.0062347 -0.07141243 0.050900966 0.039432745 -0.038262475
-0.05605478 0.04428083 0.076669626 -0.05842322 0.036756653 0.05357608 0.007227843 -0.053181704
0.0985867 0.039728794 0.06987741 0.00068312377 0.03438193 -0.016248245 0.050729726 0.07434669
0.09350712 -0.09376157 0.06407535 -0.07644572 -0.043099113 0.07084625 -0.027440004 0.07683539
0.081537716 0.013189931 -0.0003134231 0.02506636 -0.037865456 -0.074342705 -0.019670038 0.035118278
0.011467709 -0.04265487 0.028122844 0.06815776 -0.06753354 -0.02841203 -0.031935047 0.039624974
-0.02124085 -0.060311005 -0.068136916 -0.047002673 -0.009225409 0.026090711 -0.06655755 0.02984298
